src/checkpoints/gmf_factor8neg4-implict_Epoch199_HR0.6363_NDCG0.3678.model (torch_old, 312827 bytes, 3 tensors)

embedding_user.weight f4 [6040, 8]
0	0x4005da49	2.091448
1	0x3f54f01c	0.8317888
2	0x3e5b4095	0.21411355
3	0xbfc4ff7d	-1.5390469
4	0x4038ab9e	2.8854747
5	0x40bb63ab	5.8559165
6	0x3f4ff919	0.8123947
7	0xc07368a4	-3.8032618
8	0x40190c48	2.3913746
9	0x4016db8d	2.3571503
10	0x3fe1cff0	1.7641582
11	0xbf9399c5	-1.1531302
12	0xbfeef21d	-1.8667637
13	0x3fdbe8c5	1.7180411
14	0xbf9f3c1f	-1.2440223
15	0xc06dea74	-3.717435
16	0xbd494870	-0.049141347
17	0x3efc26e1	0.49248412
18	0x409bf58c	4.873724
19	0x3fd7df71	1.6865064
20	0xbec35877	-0.3815343
21	0x40754b39	3.8327162
22	0xc01738d7	-2.3628442
23	0xc00b942d	-2.180919
24	0x3f706159	0.9389854
25	0x408f8c71	4.4858937
26	0x4034aa94	2.8229113
27	0x402f46e1	2.738701
28	0xc04f1b7e	-3.236053
29	0x413d6371	11.836778
30	0xc0151334	-2.329297
31	0xc049cd13	-3.1531417
32	0x3eaa3785	0.33245483
33	0xbfe21cde	-1.766506
34	0xbfb0f2e1	-1.3824121
35	0x3e86e58e	0.2634701
36	0xbf3734e8	-0.71565104
37	0x4061b085	3.526399
38	0x3ee223e7	0.44168016
39	0xc07f9698	-3.9935665
40	0x4005932f	2.0871084
41	0x403f8824	2.9926844
42	0x3ff351b2	1.9009306
43	0xbfe90b9c	-1.8206668
44	0x403ede12	2.982304
45	0x401844a5	2.3791897
46	0xbf235e0a	-0.6381537
47	0xc04f189c	-3.235877
48	0x4016fb6d	2.3590958
49	0x3fdacc6b	1.7093633
50	0x405a7f07	3.4140031
51	0x4080f2e5	4.02965
52	0xc005ece0	-2.0925827
53	0x40c3a6a5	6.1140924
54	0xc031c059	-2.777365
55	0xc09ce3e9	-4.902821
56	0x3fb700b9	1.4297096
57	0xbe98f67c	-0.29875553
58	0xbedaa0fe	-0.42700952
59	0x3e994748	0.29937196
60	0xbf80b0c8	-1.0053949
61	0x3f9348ef	1.1506633
62	0xbf83d2ed	-1.0298744
63	0xc0cce6d0	-6.4031754
64	0x40495fd2	3.1464734
65	0xbfb28a9f	-1.3948554
66	0xbef7ea57	-0.48420975
67	0x3f247021	0.64233595
68	0xbf381a7a	-0.719154
69	0x40919e2f	4.5505595
70	0xbfc61a44	-1.5476766
71	0xc0f3705c	-7.6074657
72	0x3fd6ce13	1.6781639
73	0x3ec7ede6	0.3904869
74	0x404946e6	3.1449523
75	0xbfac5965	-1.3464781
76	0x40061a14	2.0953417
77	0x403ea96f	2.9790914
78	0x3f5ca1d2	0.8618442
79	0xbe48096d	-0.19534846
80	0xbf8ca598	-1.0988035
81	0xc024a719	-2.5726988
82	0x3f6142ad	0.87992364
83	0xbee0fe94	-0.43944228
84	0x3f7236e8	0.9461503
85	0x4040b618	3.0111141
86	0xbfd01966	-1.6257751
87	0xc080f5a0	-4.0299835
88	0x3ff07687	1.8786172
89	0xbf052741	-0.5201302
90	0x3f66e481	0.9019242
91	0x3ea442db	0.32082257
92	0xbfde1374	-1.7349687
93	0x40a684d9	5.2037168
94	0xbf94e178	-1.1631308
95	0xbf26a2ff	-0.6509246
96	0x4076b76b	3.854945
97	0x4007575c	2.114707
98	0x406d0e4d	3.7039979
99	0x3f9c71db	1.2222246
100	0xbf0416aa	-0.5159708
101	0x404d8611	3.2113078
102	0xbec5241f	-0.3850412
103	0xbf95bd8e	-1.1698472
104	0xc02e9af5	-2.7282078
105	0x3f2544c7	0.6455807
106	0xbdefe567	-0.11713677
107	0x3f464948	0.7745557
108	0x3f0583c2	0.5215417
109	0x40f3fe0f	7.624763
110	0x3fc0813d	1.503944
111	0xc0387b9b	-2.8825443
112	0xbe76e628	-0.24111235
113	0x3dbc7f3b	0.09203955
114	0x3ffbaefc	1.9662776
115	0x3fdd9c3c	1.7313304
116	0x3f20b2c4	0.62772775
117	0x3f8dae93	1.1068901
118	0xbf008ab0	-0.5021162
119	0xc1021cab	-8.131999
120	0xc028198d	-2.6265595
121	0x408997a7	4.2997622
122	0x3ff8c6f4	1.9435716
123	0x4043c91d	3.05915
124	0x40c705b5	6.2194467
125	0x40b9b7c3	5.803682
126	0x3f5c3a81	0.8602677
127	0xc08ad2e4	-4.3382435
128	0x3fed4603	1.8536991
129	0x3edb5885	0.42840973
130	0x3e805ad4	0.25069296
131	0x40072f83	2.112275
132	0xbfec2072	-1.8447402
133	0x408e4e3e	4.447051
134	0x3ff0209e	1.8759954
135	0xbf4646fa	-0.7745205
136	0x402d4f02	2.7079473
137	0x3e0949ce	0.1340706
138	0x401ded35	2.467603
139	0x3e33688d	0.17520352
140	0x3f2592d3	0.6467716
141	0x3f921fb4	1.1415925
142	0x3f9b72a4	1.214436
143	0xbfb1bd3a	-1.3885872
144	0x3e7093cd	0.23493882
145	0x3f0b997e	0.54531085
146	0x4023b436	2.5578742
147	0x3fda5b79	1.7059165
148	0x3f4621c9	0.773953
149	0x4047f936	3.1245856
150	0x3ffcaa31	1.9739438
151	0xbf205dc4	-0.62643075
152	0x3fa87038	1.3159246
153	0xbf07b49c	-0.53009963
154	0x4000466f	2.004299
155	0x4061464e	3.519916
156	0xbfb0611a	-1.3779633
157	0x40ab2cf1	5.349236
158	0xbf88fe71	-1.0702649
159	0xc064f0fd	-3.5772088
160	0x3faa5825	1.330815
161	0xbf461c05	-0.77386504
162	0x401ad894	2.4194689
163	0x40516bc4	3.2722025
164	0x405d7b3f	3.4606473
165	0x40a241a3	5.0705123
166	0x3f08c78b	0.5342948
167	0xbf6d7be2	-0.92767155
168	0xbe4a5b56	-0.19761404
169	0xc004cf5b	-2.075156
170	0x40786e1d	3.8817208
171	0x3fed1724	1.8522687
172	0x3e000425	0.12501581
173	0x3ffb67a1	1.9641
174	0xbef3cc5e	-0.47616857
175	0xc0030262	-2.0470204
176	0x3f66e841	0.9019814
177	0xbf7c0f41	-0.98460776
178	0x3fe54360	1.7911186
179	0x3f96e7e2	1.1789515
180	0xc0015aa4	-2.0211573
181	0x40881d88	4.253605
182	0x3f576bdc	0.84148955
183	0x3dd2e3ca	0.102973536
184	0xbea596ac	-0.32341516
185	0xbef998e6	-0.48749465
186	0x4009e15c	2.1543798
187	0xbfdc3d9b	-1.72063
188	0x3f0b5869	0.5443178
189	0x40571d30	3.3611565
190	0xbf5262f2	-0.8218223
191	0xc030b9a1	-2.76133
192	0x3ffc18f2	1.9695113
193	0xbedd91e9	-0.43275383
194	0x401c4f91	2.4423563
195	0x406cd279	3.7003462
196	0x3fc3ab2c	1.5286613
197	0x409f648a	4.981023
198	0x3f5479a6	0.8299812
199	0xc034d739	-2.8256361
200	0xbfad1ad0	-1.3523808
201	0x3e8e216f	0.27759883
202	0x4063ec4a	3.561297
203	0xbf89c07b	-1.0761865
204	0x3fd4d097	1.6626157
205	0xbed7e2a0	-0.4216509
206	0xbfb75c34	-1.4325013
207	0xc05300f4	-3.2969332
208	0x3fe9c37d	1.8262783
209	0x3f641fbd	0.8911093
210	0x3ee36810	0.4441533
211	0xbf592691	-0.8482447
212	0xbe87b47c	-0.26504886
213	0x40ede8ef	7.4346843
214	0xbe9d695e	-0.3074445
215	0x3e896605	0.26835647
216	0x3f819436	1.0123355
217	0x3e00f935	0.12595065
218	0x3d9bda55	0.07610003
219	0xbfb443dc	-1.4083209
220	0x3d12f396	0.035876833
221	0x40b823f2	5.754388
222	0x3f71b1b7	0.94411796
223	0xc00df876	-2.2182899
224	0x3f9089ca	1.129205
225	0x406c0013	3.6875045
226	0x406f1e30	3.7362175
227	0x402cba8f	2.6988866
228	0xc05876ba	-3.3822465
229	0x40a9820a	5.297124
230	0xbff31a60	-1.8992424
231	0xbf90d239	-1.1314155
232	0x3fc4d167	1.5376405
233	0xbed50753	-0.4160715
234	0xbff42937	-1.9075078
235	0x3ed44d4d	0.41465226
236	0xbf600267	-0.87503666
237	0x409d4b27	4.915424
238	0xbe994d9d	-0.29942027
239	0xc090bc0d	-4.5229554
240	0x3f0e7f11	0.5566264
241	0x3f690913	0.9102947
242	0x40443ff9	3.0664046
243	0xbfebe9a3	-1.8430675
244	0x401ab07e	2.4170222
245	0x40d7a3a3	6.738725
246	0xc073511b	-3.8018253
247	0x40026384	2.037324
248	0x3fc2bfd0	1.5214787
249	0x3cafe90b	0.021473428
250	0xbfa6e4d4	-1.3038583
251	0xbeafb7b4	-0.34319842
252	0xbe9d0a9b	-0.30672154
253	0x40a5339e	5.162551
254	0x3f84d960	1.0378838
255	0xc09ccb9f	-4.899856

embedding_item.weight f4 [3706, 8]
0	0xbeefec63	-0.46860036
1	0x3e71fff2	0.23632792
2	0x3f908f94	1.1293817
3	0x3f99cc11	1.2015401
4	0x3f67662c	0.90390277
5	0x40448100	3.0703735
6	0x3f8d5493	1.1041435
7	0xbfb44ffc	-1.4086909
8	0x3f8190c3	1.0122303
9	0xbf5006e9	-0.81260544
10	0xbea73086	-0.32654208
11	0x3e517c45	0.20457561
12	0xbf8206e2	-1.015835
13	0x3f4857e2	0.782591
14	0x40025a05	2.0367444
15	0x3fc005e9	1.5001804
16	0x3fa135be	1.2594526
17	0x3f614c4d	0.8800705
18	0xbe557f96	-0.20849451
19	0x403087bb	2.7582843
20	0xbf63c760	-0.889761
21	0xbef2979e	-0.473813
22	0x4017150f	2.3606603
23	0x3fda1958	1.7038984
24	0xbe6344c1	-0.22194196
25	0xbb1a4656	-0.0023540459
26	0xbf4bddf1	-0.7963553
27	0x3efa5897	0.48895714
28	0xbe348f18	-0.17632711
29	0x3f6e4000	0.93066406
30	0x3fbf3c2c	1.4940238
31	0xc07a6f9b	-3.9130619
32	0x3eb93469	0.36172798
33	0xbf41c155	-0.75685626
34	0x3feeb3ca	1.8648617
35	0x3ed08ddc	0.4073323
36	0xbf954795	-1.166247
37	0x3ff1d325	1.8892561
38	0x3fad20c3	1.3525623
39	0xbff98ab8	-1.9495459
40	0x3ee98da1	0.45615867
41	0xbf5d8ca4	-0.86542726
42	0x4080f7d0	4.0302505
43	0x3f7ba729	0.9830194
44	0x3e838530	0.25687551
45	0x4051677f	3.271942
46	0x3fa59f6c	1.2939277
47	0xbf787dfe	-0.9706725
48	0x3f9a836b	1.2071356
49	0x3fa81bb5	1.3133456
50	0x3fd2868a	1.6447308
51	0x3f7c0953	0.9845173
52	0x3f96541c	1.1744418
53	0xbf419e06	-0.7563175
54	0x3f8e40a5	1.1113478
55	0x3fddd366	1.7330139
56	0xbf6cff2f	-0.9257688
57	0xbf756fbb	-0.9587361
58	0x4020831f	2.508003
59	0x3fa66798	1.3000364
60	0x3dec1cfa	0.11528964
61	0x402ae337	2.670118
62	0x3f6d4b24	0.9269278
63	0x3dc20f9f	0.09475636
64	0x3fc2c01f	1.5214881
65	0xbeb7450d	-0.3579487
66	0x3fabf297	1.3433408
67	0x3fdad794	1.7097039
68	0xbfcd3dc2	-1.6034472
69	0x3f087671	0.5330573
70	0x405500e4	3.3281794
71	0x403d89b9	2.961531
72	0x3f2f73c3	0.68536013
73	0xbceeeedc	-0.029166631
74	0x402a228f	2.6583593
75	0x3ffaa578	1.9581747
76	0x3e6a2f3c	0.22869581
77	0x403f1c97	2.98612
78	0x4023443a	2.5510392
79	0xbe2b68c3	-0.16739182
80	0x3ffce76a	1.9758122
81	0xbf36364b	-0.71176594
82	0x3fe2048c	1.7657638
83	0x3fa9bef0	1.3261395
84	0xbfa617bc	-1.2975993
85	0x3dc39468	0.095497906
86	0x403aac67	2.9167726
87	0xbf24f2bd	-0.6443289
88	0x3fb8560f	1.4401263
89	0x3f7f67f9	0.99768025
90	0xc0408ab9	-3.008467
91	0x40207fdc	2.507804
92	0xbfaded7c	-1.35881
93	0xc012a6bf	-2.2914274
94	0x3fe636f4	1.798552
95	0x40a02c64	5.005419
96	0x3dcebf57	0.10095089
97	0x3f6ddd31	0.92915636
98	0xbefa7705	-0.4891893
99	0x4004ba44	2.0738688
100	0xbf03bcdc	-0.5146005
101	0xbfbaab5d	-1.4583546
102	0x40075914	2.114812
103	0x3fb43776	1.4079425
104	0xbf85c199	-1.0449706
105	0xbfd71860	-1.6804314
106	0x40924e68	4.572071
107	0x400c2e08	2.1903095
108	0x3d0e29d3	0.034707855
109	0x3fb540fc	1.4160457
110	0x3f804c0b	1.0023206
111	0xbdf4ac77	-0.119469576
112	0x3e055470	0.13020492
113	0x3d9bf88d	0.07615767
114	0x3f38c516	0.7217573
115	0x3fcca0d8	1.5986586
116	0xbf61cebd	-0.8820608
117	0x3fbbe0cc	1.4677978
118	0x401b8a83	2.430329
119	0x3eb772d7	0.35829803
120	0xbf8b8f2e	-1.090307
121	0xbf8a69fe	-1.0813596
122	0x405e9c70	3.4782982
123	0x3fa90c29	1.3206836
124	0x3e064362	0.13111642
125	0x404a0658	3.1566372
126	0x3fa80db0	1.3129177
127	0xbd52eb3c	-0.05149387
128	0x3fc5d487	1.5455483
129	0xbe2275ea	-0.15865293
130	0xbe099b92	-0.13438252
131	0x3e1aecd2	0.15129402
132	0xbf9f0c72	-1.2425673
133	0xbf8d2892	-1.1028006
134	0x3fc4f569	1.5387393
135	0x3f3251a4	0.69655824
136	0x3f8a8799	1.0822631
137	0xbe2840d2	-0.16430977
138	0x3f6b3336	0.91875017
139	0x3fa24492	1.2677176
140	0xbfac1052	-1.344248
141	0x3db2e864	0.08735731
142	0x401d70d4	2.4600115
143	0x40151483	2.329377
144	0xbebfe923	-0.37482557
145	0xbe867188	-0.26258492
146	0x3eae2ba8	0.34017682
147	0x3fedd736	1.8581302
148	0x3efba82f	0.4915175
149	0xc001347b	-2.0188282
150	0x3f96900c	1.176271
151	0xc0414765	-3.0199826
152	0xbf01bd3f	-0.5067939
153	0xbf9659a1	-1.1746103
154	0x4099194d	4.7843385
155	0x3ff5a7ee	1.9191873
156	0xbdbb4e1d	-0.09145758
157	0x3fc58555	1.5431315
158	0x3feb875c	1.8400683
159	0x3f145ac1	0.5795098
160	0x3f094bc8	0.5363126
161	0xbfc18b1f	-1.5120581
162	0x3fedd79b	1.8581423
163	0x3faa62c4	1.3311391
164	0xbeca4094	-0.39502394
165	0x3e4161a7	0.18884908
166	0x3f0cf9f2	0.55068886
167	0xbfff2811	-1.9934102
168	0x3fcd9418	1.606082
169	0xbf9c13c1	-1.2193528
170	0xbfa8c94c	-1.3186431
171	0x3e1c8f27	0.15288983
172	0x3daa5b47	0.08318191
173	0x3fb483b7	1.4102696
174	0x3f234e6f	0.63791555
175	0x3fe3f41a	1.7808869
176	0xbcea363b	-0.028590312
177	0xbf58264d	-0.8443344
178	0x40a52948	5.161289
179	0x3fae38ac	1.3611045
180	0x3e136fae	0.14398071
181	0x407934a8	3.893839
182	0x3ffc3268	1.9702883
183	0xbefdc5dd	-0.4956502
184	0x3ea6f103	0.32605752
185	0xbe647fe2	-0.22314408
186	0x3feabda1	1.833912
187	0x3f9f11cb	1.2427305
188	0x3f9c2196	1.219775
189	0x4016fbff	2.3591306
190	0x3fd6b8ba	1.6775124
191	0xc07cf271	-3.9522974
192	0xbe149ee4	-0.14513737
193	0x3e7d6642	0.2474604
194	0xbefefa9d	-0.49800578
195	0x3f12eeba	0.5739552
196	0xbf0efd77	-0.55855507
197	0xc05d42c4	-3.4572
198	0x3ea262d8	0.31716037
199	0xc00530c6	-2.081102
200	0x4008e3ac	2.138896
201	0xbe9c409c	-0.30518043
202	0xbe640945	-0.22269161
203	0x3ef7b6c4	0.48381627
204	0xc01cfdd1	-2.4529917
205	0xc0576439	-3.365492
206	0x4004b5f4	2.0736055
207	0x3f8f59c0	1.1199265
208	0x3e69866a	0.22805181
209	0xbe952d4e	-0.29136127
210	0x407f727f	3.9913633
211	0x3fb14091	1.3847829
212	0x3ea5228a	0.32252914
213	0x404b290f	3.174381
214	0x401d64ab	2.4592693
215	0xbf613c32	-0.87982476
216	0x3ec5cf48	0.38634706
217	0xbaae0b79	-0.0013278566
218	0x3fd8254c	1.6886382
219	0x3f844ac6	1.0335319
220	0xbdb5fd7c	-0.08886239
221	0xbe09a5ba	-0.13442126
222	0x3f910447	1.132943
223	0xc07c3592	-3.9407697
224	0x3efa7541	0.48917583
225	0xbea57a89	-0.3232005
226	0xc0be05bc	-5.9382
227	0x3f2c72f5	0.6736291
228	0x3e888018	0.26660228
229	0xc05d4be6	-3.4577575
230	0xbd9bd21f	-0.07608437
231	0x3e9858fd	0.29755393
232	0x3fe4d0b2	1.7876189
233	0xbfc268db	-1.5188249
234	0xbf8a0fff	-1.0786132
235	0x3e923ba0	0.28561115
236	0xbc64af89	-0.0139578665
237	0x40057af3	2.0856292
238	0x3e9a8dac	0.30186212
239	0x3fce2f71	1.6108228
240	0x3fb489b7	1.4104527
241	0xbf5d2bc0	-0.8639488
242	0x3f966f76	1.1752765
243	0x3ef0c222	0.47023112
244	0xbf78e735	-0.97227794
245	0xbf872b22	-1.0560038
246	0x3fdb26d8	1.7121229
247	0xbe05a245	-0.13050182
248	0xbf3af454	-0.73029065
249	0xbef9bc33	-0.48776397
250	0xbfcdef70	-1.6088696
251	0x3e4c8821	0.19973804
252	0xbd1a06f5	-0.03760429
253	0xbfa53565	-1.290692
254	0x3f1fb6df	0.62388414
255	0xc010a9b6	-2.2603583

affine_output.weight f4 [1, 8]
0	0x3e97886e	0.29596275
1	0x3ee6223d	0.44947997
2	0x3e42d463	0.19026332
3	0xbed05ba3	-0.40694913
4	0xbeb86626	-0.36015433
5	0x3de3c37e	0.111212716
6	0x3eaadb18	0.3337028
7	0x3e09c6eb	0.13454787
